ivec-cyclegan-pytorch/src/model.pt (torch_old, 263046 bytes, 10 tensors)

weight f4 [6, 3, 5, 5]
000000 e0 51 d5 3d a0 c6 ec bc 24 b3 fb bc 1c 2f af 3d
       0.10416007 -0.028903306 -0.03072507 0.08553907
000010 68 54 a3 3d 84 55 3d 3d d0 0e ec 3d 6e c9 81 bd
       0.079750836 0.046224132 0.11526263 -0.06337248
000020 9c 7b a3 3d c8 50 ed 3c 46 11 d8 3d 70 b3 00 3d
       0.07982561 0.028969184 0.1055017 0.031421125
000030 f8 98 97 3c 28 62 2e 3d 36 03 aa 3d 40 9a d0 3a
       0.018505558 0.042574078 0.08301394 0.0015915111
000040 2c 66 13 bd 08 af 9b bc aa 81 ad bd 50 8a ea 3c
       -0.03598611 -0.01900436 -0.08471997 0.028630406
000050 08 60 06 3d 54 c2 00 3d 3e f3 d5 3d e0 f2 85 bc
       0.032806426 0.031435326 0.104467854 -0.016351163
000060 2a bd d4 3d 88 ee eb 3c 18 b8 aa bc 4a fe 07 bd
       0.10387643 0.028800264 -0.020839736 -0.033201493
000070 38 6f 8b 3c 25 05 d4 bd 8a 05 a1 3d e4 ba 4d 3d
       0.017020807 -0.10352544 0.078623846 0.05022706
000080 c4 19 e2 3d 64 ce cd bc 8a ba e4 3d 5f b3 e9 bd
       0.11040071 -0.025122829 0.11168392 -0.114111654
000090 54 4c 7d bd 4c f0 69 3d 18 03 d7 3c 0c 92 68 3d
       -0.06184037 0.05711393 0.026246592 0.056779906
0000a0 90 8a bc bc fa 96 9d bd e5 53 b4 bd 60 2a 81 bb
       -0.02301529 -0.07694812 -0.08805064 -0.003941819
0000b0 78 60 96 3c 4c 5d b2 bc 88 99 d4 3c 60 a3 44 bd
       0.018356547 -0.021773003 0.025952116 -0.04800737
0000c0 00 d6 a5 b9 cc 61 04 3d 88 08 cc 3d b0 67 d1 bb
       -0.00031630695 0.03231983 0.09962565 -0.0063905343
0000d0 c4 49 68 3d 5e 88 d3 bd 88 6f 4a bc 5c a1 20 3d
       0.056710973 -0.10328744 -0.012355693 0.039216384
0000e0 5a 35 8b 3d c6 50 96 3d 70 1f 6a 3d c4 8a 6b 3d
       0.067972854 0.07339625 0.057158887 0.057505384
0000f0 ed 9c a4 bd 30 32 87 3b ce e4 c5 3d 3c 3a b1 3d
       -0.08037744 0.004125856 0.09662782 0.086536855
000100 9e 96 b8 3d d8 4d fe bc e0 44 e7 bb 24 ef c8 bc
       0.09013103 -0.031042978 -0.007057771 -0.024528094
000110 dc 95 c2 bc a0 6f ab 3d dc 7b e8 3d e4 96 72 3d
       -0.0237531 0.083709 0.11351749 0.05922593
000120 c8 dc a6 3c cf 2c c5 bd e4 5a de bd 43 7b 85 bd
       0.020368949 -0.09627687 -0.1085718 -0.06517651
000130 d0 8c bf 3d 3a 05 83 bd 64 56 1a 3d 70 c3 c6 3d
       0.0935303 -0.06397481 0.037680045 0.097052455
000140 90 33 e1 bb 04 36 5e 3d f8 48 22 3d a0 22 32 3d
       -0.006872602 0.054250732 0.03962037 0.043490052
000150 6b 1f 83 bd 50 92 53 3c 70 f9 89 bd e0 b9 d8 bb
       -0.06402477 0.012913302 -0.067370296 -0.006613955
000160 f0 45 b1 3d 1a ea c2 3d f6 a8 9e 3d e8 a4 1b 3c
       0.08655918 0.095173076 0.077470705 0.009499766
000170 f2 6c ac bd d8 01 75 bc 09 e9 5b bd 24 31 7f 3d
       -0.08419217 -0.014954053 -0.053689037 0.062302724
000180 80 6e 02 3b ac 78 d3 3d c8 7b 5f 3d 12 8a b8 3d
       0.001990229 0.10325751 0.054561406 0.0901071
000190 02 85 c6 3d f4 80 9e bc 6c 78 5b bd 46 76 d1 3d
       0.09693338 -0.019348599 -0.05358164 0.10227637
0001a0 80 08 57 3c fc 99 e6 3d d0 79 4a bc cf ef 77 bd
       0.013124585 0.11259839 -0.012358144 -0.060531434
0001b0 88 ee 69 3d c4 f5 0c bd 4d 96 5f bd e0 44 21 3c
       0.057112247 -0.034414068 -0.054586697 0.009843081
0001c0 dc 26 23 3d 20 b2 b5 3b 3c 5e 08 3d b8 5b 80 3d
       0.03983198 0.005544916 0.033292994 0.06267494
0001d0 1a 2c d0 3d 20 65 3b 3c 47 24 eb bd 78 06 69 bd
       0.10164662 0.011437684 -0.11481529 -0.056890935
0001e0 fe c3 e1 3d 74 0b df 3d 5e 79 bd bd e2 70 44 bd
       0.11023711 0.108908564 -0.092516646 -0.047959216
0001f0 06 d9 e4 3d ac 15 9f 3d 64 3d dc bd c3 3a d3 bd
       0.111742064 0.077678055 -0.10753897 -0.10313942
000200 0c 58 ca 3d 46 4f 89 3d a2 88 b8 bd b8 45 8a bd
       0.09880075 0.06704573 -0.09010436 -0.06751579
000210 08 73 84 3d 5e fa ba 3d 48 22 94 3d e2 0e 29 bd
       0.06467253 0.09129785 0.07233101 -0.04127396
000220 a0 b4 ee 3b 8c 62 ca 3d de 8f 36 bd 1e 77 80 bd
       0.007284716 0.098820776 -0.044570796 -0.0627272
000230 c2 3b 8d 3d 40 ee bd 3c 6c 87 d2 bc e0 4f 32 3c
       0.068961635 0.023184896 -0.02569934 0.0108833015
000240 00 03 a5 3a ef 99 c6 bd 60 22 59 3c 08 5d cb bc
       0.0012589395 -0.09697329 0.013252825 -0.024824634
000250 d0 93 ff 3c fd ea 5e bd 3e e5 99 bd 88 c3 93 3c
       0.031198412 -0.05442332 -0.075144276 0.018037573
000260 4f df d3 bd 02 a8 91 3d e0 65 14 bb 7d ad d6 bd
       -0.10345327 0.07112123 -0.002264373 -0.10482309
000270 29 0a aa bd d3 5f b1 bd 80 cc 17 3d 42 65 c7 3d
       -0.08302719 -0.08660855 0.03706026 0.0973611
000280 b0 ef 6c 3d 4c a9 a5 bd e6 99 da 3d 0a 72 b1 3d
       0.05784577 -0.080889314 0.10673885 0.08664329
000290 df 1a 88 bd 4a 01 0f bd 18 01 24 bc 48 7d 5a 3d
       -0.0664575 -0.03491334 -0.010010026 0.053342134
0002a0 22 d3 93 3d a2 2a b5 bd b1 a9 67 bd ba cc e4 bd
       0.07218005 -0.08846022 -0.056558315 -0.11171861
0002b0 64 2b ba bd a8 5a 50 3d fc 3d 25 3d c0 e0 6e bb
       -0.09090307 0.050867707 0.040342316 -0.003644988
0002c0 d0 d1 b7 3c cc 49 6f 3d 2c 0a 3a 3d 90 ae e9 3d
       0.022438914 0.058419988 0.045419857 0.11410248
0002d0 6b 9e de bd e1 3b 77 bd 30 84 84 3c 5c 1e a1 3d
       -0.108700596 -0.06035984 0.016176313 0.07867119
0002e0 a4 cf 1e 3d 18 15 18 bd 28 94 18 3c f4 c7 02 3d
       0.03877224 -0.03712949 0.009312667 0.03192897
0002f0 b4 45 da 3d f0 f2 bc 3c 6c 33 cc bd 10 c3 ac 3d
       0.10657826 0.02306506 -0.099707454 0.08435643
000300 74 ad 0c 3d 78 01 7c bc b4 2a 2b 3d 45 34 5f bd
       0.034345105 -0.01538121 0.04178877 -0.054493207
000310 a0 e8 95 3c 5e 2b 00 bd 04 8f eb bd dc 5f c9 bc
       0.0182994 -0.03129136 -0.115018874 -0.024581842
000320 8c c3 38 bd 80 1d 57 bd e8 18 fd bc d4 88 a5 3d
       -0.045108363 -0.052518368 -0.030895665 0.080827385
000330 28 59 ac 3d 20 89 69 3c bc 10 7b 3d 50 9a 5d 3d
       0.08415443 0.014253885 0.061295256 0.054102242
000340 e0 99 a9 3d 22 19 e9 3d 98 28 82 bc 10 f1 9e bd
       0.082813025 0.11381747 -0.015888497 -0.07760823
000350 28 5c 92 3d fc e0 d7 bd 56 8d 86 bd 8b fe e4 bd
       0.07146484 -0.10540959 -0.065699264 -0.11181363
000360 6c 71 85 3d fc 23 02 3d 90 39 43 3d 28 84 3f 3d
       0.06515774 0.0317726 0.047662318 0.046756893
000370 44 bf b5 bd 25 bb 67 bd 48 74 bd bd b0 8b a7 bb
       -0.08874372 -0.05657496 -0.092506945 -0.0051130876
000380 40 07 c4 3a f8 64 68 3d 98 c0 38 3d d2 52 bf 3d
       0.0014955774 0.056736916 0.045105547 0.093419686
000390 1a d4 80 3d 4e 1d a9 bd c0 bc 6d 3d 7c bf 59 bd
       0.06290455 -0.082575426 0.058041334 -0.05316113
0003a0 d8 fa e6 bd e2 b3 35 bd 24 5e d2 bd 28 20 43 bd
       -0.112783134 -0.044361003 -0.10271862 -0.04763809
0003b0 40 2b 74 3c cf df cd bd cc c1 b1 bd 02 71 c0 3d
       0.01490289 -0.10052454 -0.08679542 0.093965545
0003c0 10 cb 9c bc 72 cd 91 3d 24 6b 88 bc 38 f4 64 3d
       -0.019139796 0.07119264 -0.016652651 0.055896968
0003d0 5a 0f cc 3d ac 69 8e 3d 00 33 0b 3b 80 dc 33 3d
       0.099638656 0.06953749 0.0021240115 0.043911457
0003e0 36 1a 33 bd f4 41 4a bd 34 22 d1 3d 44 d3 4e bd
       -0.04372617 -0.049379304 0.10211602 -0.050494447
0003f0 28 9b c7 3c 99 21 a1 bd 22 cc aa 3d 98 ef ca bc
       0.024365976 -0.07867736 0.083397165 -0.02477245

bias f4 [6]
000000 10 8d a2 bd fc 51 c9 bd 30 a6 23 3c 92 84 c9 3d
       -0.07937062 -0.098300904 0.009988353 0.09839739
000010 b0 8c fa 3c 64 31 2b 3d
       0.030584663 0.04179515

weight f4 [16, 6, 5, 5]
000000 4c 5d 57 3d 04 01 63 3d e8 2b 11 3c 7c 69 97 bd
       0.05257921 0.05542089 0.008860566 -0.073931664
000010 c9 6e a3 bd 38 81 98 3c 0d 25 48 bd d6 ec 04 3d
       -0.07980115 0.018616304 -0.04886346 0.032452427
000020 e0 bd 00 3b b0 0c 88 3c f2 fb 5a bd 40 c4 dd bb
       0.0019644424 0.016607612 -0.05346293 -0.0067677796
000030 60 c7 64 bc 54 39 a3 3d 80 32 52 bb 5a 50 92 3d
       -0.01396355 0.07969919 -0.0032073557 0.07144232
000040 0c 58 05 3d e6 c8 28 3d 08 e6 98 3c 0c 18 a6 3c
       0.03255467 0.041207217 0.018664375 0.020275138
000050 30 65 83 bd ca 0b 9f bc b0 3b 6a 3c 98 06 31 bc
       -0.06415784 -0.019414801 0.014296457 -0.010804795
000060 2c 77 90 3d a8 ab 5e 3d 0c 58 8e 3d 70 98 f3 3b
       0.0705398 0.054362923 0.06950387 0.0074339435
000070 29 fd 94 bd d0 9b 83 bc 42 f1 9f bd 90 25 6f 3d
       -0.07274849 -0.016065508 -0.07809688 0.05838543
000080 7e b6 a1 bd 20 9a c6 bb 6d d9 01 bd 60 ab db 3b
       -0.07896136 -0.0060608536 -0.031701494 0.006703779
000090 c8 a8 3d 3d f0 55 94 3c 58 d8 dd 3c 9c 22 6e 3d
       0.04630354 0.018107384 0.0270807 0.058138475
0000a0 3f a6 4b bd 54 6c 99 bc 54 90 33 3d e2 e0 86 bd
       -0.04971909 -0.018728413 0.043838814 -0.06585862
0000b0 8a 10 92 bd b6 0e 45 bd 78 9b 71 3d 09 b9 38 bd
       -0.07132061 -0.048109733 0.058986157 -0.04509834
0000c0 14 23 c6 bc fe 4e 16 3d 14 a5 56 3d d0 15 85 3b
       -0.024186648 0.036696427 0.052403525 0.004061438
0000d0 bc b3 cf 3c dc e2 53 bd 7a 81 89 3d 38 ab bf bc
       0.025354259 -0.05173002 0.06714149 -0.023397073
0000e0 ac 01 22 3d 38 fd 56 bc 3c b2 7d 3d e6 a6 03 bd
       0.039552376 -0.0131218955 0.061937556 -0.03214159
0000f0 00 19 70 3b a4 31 de 3c 56 e6 db bc 0c ae 97 bc
       0.0036635995 0.02712328 -0.026843231 -0.01851561
000100 28 67 83 3c f0 59 47 bc 2f 46 a2 bd 38 7a 28 3d
       0.0160404 -0.012167439 -0.07923543 0.041132182
000110 ae 60 26 bd e0 26 25 3c 48 3e 61 3d 3e d7 8a bd
       -0.040619545 0.010080069 0.054991037 -0.067793354
000120 40 ba 97 3d 71 08 5e bd 70 a0 e6 3b f0 cb 93 bc
       0.07408571 -0.05420727 0.0070381686 -0.01804158
000130 2c 44 62 3d b1 f9 87 bd de 02 8e 3d d8 9a 51 3d
       0.055240795 -0.06639422 0.069341406 0.05117306
000140 dc 38 62 bd 00 a5 2e 3c 45 96 32 bd bc ee a3 3c
       -0.055230007 0.010659456 -0.04360034 0.020011298
000150 30 c7 6a 3d 2d c1 0a bd 10 c6 ed bb 90 c1 48 3c
       0.057318866 -0.033875633 -0.007256277 0.01225318
000160 b8 a9 d8 bc a4 f8 2f bd 4a c0 8f bd 43 c2 8e bd
       -0.026448116 -0.04296173 -0.07019098 -0.06970646
000170 c8 90 22 bc 04 7e 1b 3d 70 54 3a 3d dc f1 46 3d
       -0.009922214 0.037961975 0.045490682 0.0485705
000180 6e f7 ea bc ff 40 0b bd 90 0d 8b 3b d8 86 89 3c
       -0.028682437 -0.033997532 0.00424356 0.016787931
000190 00 74 d5 3c 54 4a a4 3d 80 7f e7 3a 23 ca 1c bd
       0.02605629 0.080219895 0.0017661899 -0.03827871
0001a0 d0 b5 84 bd 7b ff 6a bd 69 b6 9d bd 64 73 7c bd
       -0.064799905 -0.05737255 -0.077008076 -0.061633483
0001b0 e8 69 72 bc 10 34 58 3d a4 ff 0d 3d c4 5b 5a 3d
       -0.014795758 0.052784026 0.034667626 0.05331017
0001c0 70 9a 19 3d 6a 8d a1 3d 86 cc 2a 3d 20 b1 1b bb
       0.0375008 0.07888301 0.041698955 -0.0023756698
0001d0 34 11 c7 3c 92 98 4a bd 60 8b 9a 3d c0 8c 6d bc
       0.024300195 -0.04946191 0.07546115 -0.014498889
0001e0 3c 0a 8f 3c 8b ef 82 bd 7e 58 cc bc c8 8d 96 3d
       0.017460935 -0.063933454 -0.02494454 0.073512614
0001f0 a0 56 49 bb 21 38 92 bd 94 40 7e bd 20 98 1d bb
       -0.0030721799 -0.07139612 -0.062073305 -0.0024046972
000200 8c de a0 3d 32 a5 ca bc 96 c8 d5 bc 54 c3 01 3d
       0.078549474 -0.024736974 -0.026096623 0.03168042
000210 63 d9 10 bd c8 d8 6e bc 3e 69 c5 bc 00 4b 3a ba
       -0.035363566 -0.014578052 -0.024098035 -0.0007106513
000220 b0 eb 1c 3d 90 ea c4 bb fc 18 48 3d 00 45 ef 39
       0.038310707 -0.0060094073 0.048851952 0.0004563704
000230 10 c5 f0 bb 98 ce 93 3d 04 4b 8c 3d 30 f7 ee 3c
       -0.0073477104 0.07217139 0.068502456 0.029170603
000240 60 3c 09 bc c5 ad 96 bd d5 4b 04 bd 40 d2 f7 3c
       -0.008376211 -0.07357363 -0.03229888 0.030251622
000250 a9 42 1d bd 80 bc fa ba 88 5b 7c bd ac 28 46 3d
       -0.03839365 -0.0019129664 -0.06161073 0.04837863
000260 b8 6f 71 3d 60 37 33 3b f2 5f a1 bd 26 96 2a bd
       0.058944434 0.0027346238 -0.07879628 -0.0416471
000270 11 1c 1f bd ac ca 23 3d e3 b1 88 bd c4 ce 81 3d
       -0.038845126 0.039988205 -0.06674554 0.063382655
000280 a0 a2 6c 3c 0a bf f3 bc d9 37 28 bd 0f 3c 18 bd
       0.01444307 -0.02975418 -0.041068885 -0.03716665
000290 e6 d6 82 3d 40 34 93 bb 3c 86 9b 3c fb f0 8a bd
       0.06388645 -0.0044923127 0.018984906 -0.067842446
0002a0 40 94 a0 3d a8 0f 3c 3d 98 24 6d bd e4 ea 51 bd
       0.078407764 0.04591337 -0.057896227 -0.0512494
0002b0 80 83 6b bd c8 b1 52 3d 72 da f4 bc c7 c5 8e bd
       -0.057498455 0.051439077 -0.02988932 -0.06971317
0002c0 ae d3 14 3d 96 d2 51 bd 59 86 13 bd d6 e1 56 bd
       0.036334686 -0.05122622 -0.036016796 -0.052461468
0002d0 0f 71 a2 bd f8 e8 e8 bc 40 0b c7 bc d8 83 8e bc
       -0.079317205 -0.0284314 -0.024297357 -0.017396852
0002e0 91 ff 33 bd 95 8a 63 bd 11 3c a5 bd af 19 02 bd
       -0.0439449 -0.055552084 -0.080680974 -0.031762775
0002f0 4c 7b 90 bd 9c b7 9b 3c 78 f8 2f 3d 20 56 b7 bb
       -0.07054767 0.01900845 0.042961568 -0.0055949837
000300 d8 ee db 3c 14 5d 94 3c db 8b a6 bd 6e ec 25 3d
       0.026847288 0.01811079 -0.08132144 0.04050868
000310 1f 65 28 bd 2e 8d 82 bd 7a e0 29 3d 10 dd c6 bb
       -0.04111206 -0.06374584 0.041473843 -0.006068833
000320 d8 16 02 3c b0 c4 22 3c c2 e0 a4 3d 30 27 80 3c
       0.007940017 0.009934589 0.08050682 0.015643686
000330 30 32 6b bd 80 7d 0e bb da db 12 bd 64 fc 89 3d
       -0.05742091 -0.0021742284 -0.035854198 0.06737593
000340 00 08 21 39 80 90 24 3a 54 b5 50 3d ce 90 93 3d
       0.00015357137 0.00062776357 0.050954178 0.07205354
000350 17 c7 39 bd c1 6a 0d bd 48 66 10 bd f8 4b 2c 3c
       -0.045355882 -0.034525637 -0.035253793 0.010516159
000360 2c 52 2c 3d 50 29 4f 3d 87 4f 28 bd cc 60 f8 bc
       0.042070553 0.050576508 -0.04109147 -0.030319594
000370 20 ea 48 3d fc 97 9e 3d ee bc f4 bc 0b 0e 3a bd
       0.049051404 0.077438325 -0.029875245 -0.04542355
000380 14 7d ee 3c 9d b1 9b bd e0 91 64 3c d4 82 75 bd
       0.029112376 -0.076022364 0.013950795 -0.05993922
000390 ba 2f 98 bd 80 74 ec bb 4a c0 01 3d 02 1b 2a 3d
       -0.07430978 -0.0072160363 0.03167752 0.041529663
0003a0 78 09 0d 3d e4 c8 d8 3c 68 1d 45 3c 44 b5 8b 3c
       0.03443286 0.02646298 0.012030937 0.017054208
0003b0 d2 eb 72 bd 03 73 28 bd 82 5d 83 3d 10 da 62 3c
       -0.059306927 -0.04112531 0.064143196 0.013845935
0003c0 90 85 6d 3d 20 9f 5b 3d 30 52 df 3c 78 af 4f bc
       0.057988703 0.05361855 0.02726087 -0.012676112
0003d0 c6 46 02 bd 41 fd 9c bd 80 11 fa 3c 38 fe 06 3d
       -0.031805776 -0.07665492 0.030525923 0.032957286
0003e0 00 30 22 3a ac 2b 11 3d 36 40 a4 3d ed 07 19 bd
       0.0006186962 0.03544204 0.0802006 -0.037361074
0003f0 c8 c4 6b 3c b3 25 7b bd 70 24 4e 3d 04 a8 ad bc
       0.014390178 -0.06131525 0.05032772 -0.02119828

bias f4 [16]
000000 50 ee 87 3d f8 6c 71 3d f4 47 24 3d 3c cf ea 3c
       0.066372514 0.05894181 0.040107682 0.02866327
000010 fc 69 4e 3d 34 ba f2 3c f8 a0 4e 3c 94 44 9b 3d
       0.050394043 0.029629804 0.01261162 0.075814396
000020 60 48 7e bb 40 f2 11 bb 43 8f 93 bd 28 48 49 3c
       -0.0038800463 -0.0022269636 -0.072050594 0.01228527
000030 12 81 9e bd fa 2d 1d 3d 5d de 32 bd 4a ae 8c bd
       -0.07739462 0.038373925 -0.043669093 -0.068691805

weight f4 [120, 400]
000000 60 6c 22 bd db e1 4a 3d 99 a5 3f 3d 89 e9 43 3d
       -0.039654136 0.0495318 0.046788786 0.04783014
000010 e8 c1 44 3c f0 27 a1 bb 03 d4 d9 bc 9a e7 42 bd
       0.0120091215 -0.004918091 -0.026590353 -0.047584154
000020 f8 ed 53 bc 78 19 23 3c 5a 62 cb 3c 63 b6 41 3d
       -0.012935154 0.009954803 0.024827171 0.04729308
000030 12 97 44 bd 10 d7 98 bb 1a ca 49 bd d0 c2 61 3b
       -0.047995634 -0.0046643093 -0.049265005 0.0034448393
000040 1a 31 30 bd 14 d2 18 3c 00 c7 13 bd 2a e8 9b bc
       -0.043015577 0.00932743 -0.036078453 -0.019031603
000050 f2 28 bc 3c 3b 19 0c 3d 09 f0 44 3d 40 94 bf bc
       0.022968743 0.03420375 0.048080478 -0.02338612
000060 0d 26 42 3d 0c 9c 0b bc c7 93 2e bd 6e 0d ed 3c
       0.04739957 -0.008521091 -0.0426214 0.028937068
000070 a0 64 07 bc 3b 60 26 bd d6 d2 80 3c 80 f1 15 bb
       -0.008263737 -0.040619116 0.015725534 -0.002287954
000080 2e c8 00 bd 30 15 ab bc 60 e0 7b 3b 70 f9 ab bb
       -0.031440906 -0.020884126 0.0038433298 -0.005248241
000090 92 37 b7 3c c8 19 04 3c 88 41 48 bd a8 b9 c6 bb
       0.022365365 0.008062787 -0.04889062 -0.0060646124
0000a0 05 2d 03 bd 3d 13 fa bc ef 5f 33 bd e0 b9 13 bb
       -0.032025356 -0.030526752 -0.04379266 -0.002254121
0000b0 00 b5 fe ba 34 cc 62 3c 6d 3b 4a bd 20 f8 46 3c
       -0.0019432604 0.013842631 -0.04937308 0.012144119
0000c0 b4 cc 01 bd 2c 27 7a bc 08 8c 1e bd c8 0d 1e bd
       -0.03168936 -0.015268128 -0.038707763 -0.03858736
0000d0 9d ad 2c bd d4 a7 07 bd f0 e1 c5 3b 61 e6 18 3d
       -0.042157758 -0.033119038 0.0060388967 0.03732908
0000e0 16 f4 1f bd 55 40 31 3d c7 98 e0 bc 15 10 1b bd
       -0.039051138 0.043274242 -0.0274166 -0.037857134
0000f0 d0 7c 01 3b f7 36 a0 bc 40 c1 cb 3a 33 52 b0 bc
       0.0019758232 -0.01955746 0.0015545264 -0.02152357
000100 00 06 d3 bc 57 5a 1a 3d e0 25 08 3b 69 86 31 3d
       -0.025759697 0.03768381 0.0020774528 0.043341074
000110 5b f7 2e 3d e7 8a 18 3d e6 a9 29 bd ff 43 2f bd
       0.042716365 0.037241843 -0.041421793 -0.042789456
000120 e6 69 ec 3c 0e 02 a4 3c 53 2e 1d 3d 86 6b 9b 3c
       0.02885909 0.020020511 0.038374256 0.01897217
000130 ce 53 96 3c bb 10 00 3d 7c c4 8b bc 7f 79 42 3d
       0.018350508 0.031265955 -0.017061464 0.04747915
000140 5a 8a f6 bc 4a 9b ca 3c 00 24 e4 38 0a 48 9a 3c
       -0.030095268 0.02473225 0.00010878593 0.018833179
000150 f4 e2 4d 3c a0 02 a0 ba 78 40 1f bd 38 a4 1b bd
       0.012566317 -0.0012207814 -0.03887984 -0.037998408
000160 39 a3 08 3d 88 cd 4d bc d5 ba 4b 3d 26 dd b1 3c
       0.033358786 -0.0125612095 0.049738724 0.021711897
000170 ce e8 ac 3c 70 cd dd 3b 7d f4 2a bd 72 18 ec 3c
       0.021107104 0.006768875 -0.04173707 0.02882025
000180 da 51 de 3c d4 c7 3a bc e5 97 0f 3d cb 73 1c 3d
       0.02713864 -0.011400182 0.035056967 0.038196366
000190 c8 90 7e bc c0 6b e5 bb 08 9a 63 bc 00 86 c9 3b
       -0.015537448 -0.00700137 -0.013891704 0.0061500072
0001a0 f0 0d fc 3b 98 35 13 3c 91 c0 3a 3d 4e 41 28 bd
       0.007692091 0.008984946 0.045593802 -0.041077904
0001b0 2a 25 d3 bc f7 73 ed bc 0a dc 92 bc 13 50 13 bd
       -0.025774557 -0.02898596 -0.017927188 -0.035965037
0001c0 d2 1b 9a 3c 00 fa eb ba 86 49 8c bc 19 e5 12 3d
       0.018812094 -0.0018003583 -0.017124902 0.035863016
0001d0 80 b3 d8 bc 52 c3 dc 3c 80 c8 05 ba 3a 8c ef bc
       -0.02645278 0.026948605 -0.0005103424 -0.02924167
0001e0 2f 9e 01 3d e0 db 74 bc 19 d0 11 3d e0 91 3a bd
       0.031644996 -0.014945 0.035598848 -0.045549273
0001f0 42 53 42 bd 86 db 0a bd 42 1d ea 3c 02 60 a3 3c
       -0.047442682 -0.03390076 0.028578404 0.019943241
000200 d9 26 12 3d 42 3a fb 3c 38 84 03 bc 28 39 0d bd
       0.03568158 0.030667428 -0.008027129 -0.034478337
000210 26 d3 f3 3c 3a b5 bf bc df 2f 37 bd f6 16 ab 3c
       0.02976377 -0.023401845 -0.044723388 0.020884972
000220 a8 25 8d bb 82 dd d8 3c 3a df e8 bc 1d 6d ad bc
       -0.0043074675 0.02647281 -0.028426755 -0.021170193
000230 ad 76 e9 bc 80 ec 7b 3a fd e9 46 3d 44 d0 69 3c
       -0.028498972 0.00096101314 0.048562992 0.014270846
000240 c0 bd 8c ba aa 2d a4 3c 7e 59 96 3c 33 f9 3a bd
       -0.0010737702 0.020041306 0.01835322 -0.04564781
000250 4c f5 35 bc de ed a7 3c b2 6d bb 3c 68 be e8 3b
       -0.011105847 0.020499166 0.022879455 0.0071027763
000260 25 e4 3d bd a8 8f a1 3b 00 d0 fa b7 52 f8 bc 3c
       -0.046360154 0.0049304552 -2.989918e-05 0.023067627
000270 9a 38 ef 3c 78 a6 45 bd 27 25 e0 bc 3b 31 2f 3d
       0.029201794 -0.04825446 -0.027361466 0.04277156
000280 cf 75 44 bd 13 b0 0c 3d 68 52 28 bc 9d 47 33 bd
       -0.047963914 0.034347605 -0.010273553 -0.043769468
000290 b1 66 24 3d 00 9b 2f b9 26 20 e6 3c b6 cf c3 3c
       0.040136997 -0.00016747043 0.028091501 0.023902755
0002a0 a9 01 3d 3d 28 70 73 bc d0 6d c0 3b c0 a5 f2 bb
       0.04614416 -0.014858283 0.0058724657 -0.007405013
0002b0 c3 61 db bc d6 dc 14 bd 20 0f 70 3b a0 94 d5 bc
       -0.026780015 -0.036343418 0.003663011 -0.026071846
0002c0 12 c9 b5 3c 72 bf 3c bd ad 91 cf bc e8 c0 af bb
       0.022190604 -0.046081014 -0.025338018 -0.0053635724
0002d0 02 e9 bd 3c e8 0a 90 bb 0e 90 ca 3c 1a 50 31 bd
       0.023182396 -0.0043958314 0.024726894 -0.04328928
0002e0 78 6b 21 3c c9 0b 21 3d c1 6e 30 3d 20 d4 58 3b
       0.009852283 0.03931788 0.043074373 0.003308542
0002f0 0a 2b f5 bc 93 99 37 3d 6d 35 d7 bc 1a b9 a7 bc
       -0.02992775 0.044824194 -0.026270593 -0.020474005
000300 8b 93 01 3d e2 bc 24 bd 2a ab 99 3c 68 d3 8f 3b
       0.03163485 -0.040219195 0.018758375 0.0043892153
000310 7e 0f eb 3c 50 c9 2d 3b 60 04 41 3b 4d 21 45 bd
       0.02869391 0.0026517697 0.002945207 -0.04812746
000320 c0 03 c5 bc f0 50 fd bb 70 54 00 bd 83 4d 2e 3d
       -0.02404964 -0.007730596 -0.031330526 0.04255439
000330 24 e2 6d 3c ac bf 5f bc 5a b4 25 bd 02 a2 d5 3c
       0.014519248 -0.013656538 -0.0404552 0.026078228
000340 00 02 b1 3b eb 1d 4c bd cb 0f 2b 3d 68 d2 a5 bb
       0.0054018497 -0.04983322 0.04176311 -0.005060483
000350 e9 6d 30 3d 20 f1 76 3b 31 51 04 3d e0 09 1d bd
       0.04307357 0.0037680343 0.032303993 -0.038339496
000360 c2 fb 07 bd ed 81 fc bc 0a c9 40 bd ca d1 45 bd
       -0.03319908 -0.030823672 -0.047066726 -0.048295774
000370 40 92 89 3a e8 5b af bb 54 bb 23 bc f3 bd 05 3d
       0.0010495856 -0.0053515323 -0.009993393 0.032651853
000380 d3 8c 39 bd 3a 42 bf 3c 62 b2 f8 3c 40 6c 5b bc
       -0.045300316 0.023347009 0.030358497 -0.013392508
000390 d6 e1 e4 3c 6e 7d d7 3c 4c 24 3d 3c a9 85 0b 3d
       0.027939718 0.026304927 0.011544298 0.034063015
0003a0 ba af 90 bc 17 34 13 3d 00 46 30 bd 85 e2 1d bd
       -0.017661918 0.03593835 -0.043035507 -0.038546104
0003b0 7d c4 cc bc d5 8e 30 3d 5b 76 34 bd cf 2d 11 3d
       -0.024996037 0.043104965 -0.044058185 0.035444077
0003c0 7f 02 24 3d 88 41 21 bd ca 21 f7 bc 67 20 17 3d
       0.040041443 -0.039369136 -0.030167479 0.036896136
0003d0 dc 87 8f bc ba bd eb bc 9c b2 7f 3c 53 ec 32 bd
       -0.017520837 -0.028776992 0.015606549 -0.043682408
0003e0 9a b4 a5 3c e7 f2 c2 bc b6 3b 8a bc e4 54 53 3c
       0.02022772 -0.023797465 -0.016874176 0.0128986575
0003f0 20 2e 02 bd 54 04 91 bc 46 8c 1f bd ea c6 9a 3c
       -0.03178227 -0.01770226 -0.038952135 0.018893678

bias f4 [120]
000000 b7 ef 9a bc 98 ca fc bb 90 fa 97 bb 89 d5 40 3d
       -0.018913133 -0.0077145807 -0.0046380237 0.047078643
000010 f6 af 21 bd 54 74 88 bc 09 c6 46 3d e0 1d 13 bc
       -0.03947445 -0.016657032 0.048528705 -0.008979291
000020 54 22 86 bc 46 af c4 3c da 9c 9d 3c 68 46 4c bd
       -0.01637379 0.024009358 0.019239832 -0.049871832
000030 b7 cd 2c 3d 32 0c e0 3c 93 1c 2c 3d 00 52 65 bc
       0.042188372 0.027349565 0.042019438 -0.013996601
000040 2c de 06 bd bd c9 fa bc 70 34 be 3b 40 f3 94 bc
       -0.032926723 -0.030613774 0.005804591 -0.018182397
000050 72 73 d8 3c 80 1d 93 3b 38 df 1b bd a0 10 05 bb
       0.026422236 0.0044896007 -0.038054675 -0.0020304099
000060 01 c9 0b 3d 80 45 d3 b9 02 3c 48 bd 6c b6 31 bc
       0.03412724 -0.00040296838 -0.048885353 -0.010846715
000070 08 d4 2c bc 56 b8 12 bd ee f1 8c 3c 30 0f f3 bc
       -0.010548599 -0.035820328 0.017205205 -0.029670328
000080 05 f6 42 bd a9 58 4a 3d a8 b8 35 3c 38 62 47 3c
       -0.047597904 0.04940096 0.011091389 0.012169413
000090 15 d9 11 bd 6c 9c 02 bc 16 5c a5 3c c6 3f f2 3c
       -0.035607416 -0.007971864 0.020185512 0.029571425
0000a0 e0 4c 1d bd ad 08 1f 3d 62 e5 1c bd d5 ce 09 3d
       -0.03840339 0.038826633 -0.038304694 0.033644516
0000b0 df 7e 10 3d 20 c6 6d 3b a1 b8 2c 3d a7 3c 11 3d
       0.035277244 0.0036281422 0.042168263 0.035458233
0000c0 18 8f 28 bd 00 5e 82 3a 58 ee 44 3c 3b f8 39 3d
       -0.04115209 0.0009946227 0.012019716 0.045402747
0000d0 bb 61 23 bd 71 8e 4b 3d 16 a4 db 3c 58 8f 02 bc
       -0.039888125 0.04969639 0.02681164 -0.007968746
0000e0 6a 92 06 bd 80 ba 28 3c 33 3a 1d bd de 46 9d 3c
       -0.032854475 0.010298371 -0.03838558 0.019198831
0000f0 57 0a 49 3d 82 25 95 3c 30 3a 74 bb f8 85 16 bd
       0.049082126 0.018206362 -0.0037266128 -0.036748856
000100 69 e0 2b 3d 77 f9 eb bc f6 c0 aa 3c 34 14 4d bc
       0.04196206 -0.028805478 0.020843964 -0.012517024
000110 3a b0 81 3c 20 4d 67 bb 96 3f 99 3c 81 5b 07 3d
       0.015831102 -0.0035293773 0.018707078 0.03304625
000120 fc fa 61 3c f2 30 1f bd ae c9 e8 3c 58 0d 26 bd
       0.0137927495 -0.038865037 0.02841648 -0.04054007
000130 e7 d1 3a bd a0 80 d9 bc e7 a4 f1 bc 5e 5a d3 3c
       -0.045610335 -0.026550591 -0.029497577 0.025799926
000140 00 c4 4b bc 32 92 94 3c cd 81 22 bd c2 57 c7 3c
       -0.012436867 0.018136118 -0.03967457 0.024333838
000150 20 94 03 bb 7a d8 4a bd 20 b2 32 3c 30 ea cf bb
       -0.0020077303 -0.049522854 0.010906726 -0.006345056
000160 12 9c 0e bd 60 26 e4 bc 60 d1 bf bc 30 3e 18 3b
       -0.03481681 -0.02785033 -0.023415267 0.0023230426
000170 92 d5 02 bd e5 a9 28 3d 54 46 54 3c d3 37 1b bd
       -0.031941958 0.04117765 0.012956221 -0.037895035
000180 ac 9d 5e 3c 90 30 d8 bb d2 d4 b7 3c 87 5e cd bc
       0.013587397 -0.006597586 0.022440348 -0.025069488
000190 00 3f d7 39 d0 f4 4d 3b 1c 43 82 bc 93 3d 1e bd
       0.00041054934 0.0031426437 -0.01590114 -0.03863294
0001a0 cc 20 73 bc d7 fb 2c bd e8 f2 6f bc c3 dc ea bc
       -0.014839362 -0.04223236 -0.014645316 -0.02866972
0001b0 83 92 07 3d cb f8 2c 3d 7f 06 24 3d b2 82 14 bd
       0.03309871 0.042229455 0.040045258 -0.036257453
0001c0 90 5f b3 bb 60 0a 63 3b ba c4 81 bc 3e 38 15 bd
       -0.0054740384 0.0034643635 -0.015840877 -0.03643059
0001d0 e8 8f f5 bb 7d 2d 2d 3d ca 35 0b bd b3 d9 ad bc
       -0.0074939616 0.04227971 -0.033986844 -0.021221971

weight f4 [84, 120]
000000 7c 82 a3 3d f0 9e a2 bd 6c 15 e0 bc f8 fd b7 3c
       0.07983872 -0.07940471 -0.027353965 0.022459969
000010 e0 28 c6 3c 19 d1 23 bd e4 ed a0 bc be bc 60 bd
       0.024189413 -0.039994333 -0.019644685 -0.0548675
000020 20 37 67 3d 20 c3 be bb ee 84 96 3d a0 66 c4 bb
       0.056449056 -0.0058216006 0.07349573 -0.005993679
000030 20 1f 14 3d d0 c9 de bb c4 6f 99 bc 31 ca b4 bd
       0.036162496 -0.0067989603 -0.018730052 -0.088276275
000040 bc 68 82 3c b0 3e 60 3d 10 3d 9a bd c0 10 2e bb
       0.015919082 0.054747283 -0.07531178 -0.0026560277
000050 a6 ca b4 3d 28 28 4d 3c dc 99 89 3c 40 dd 25 3d
       0.088277146 0.012521781 0.016796999 0.040494204
000060 9c b4 4e 3d ba 35 b5 3d a8 79 c1 bc 6c 61 6b bd
       0.05046521 0.08848138 -0.02361758 -0.057465956
000070 b1 89 2c bd 80 18 76 bb a6 00 8e bd a4 6c af bd
       -0.0421235 -0.0037551224 -0.069337174 -0.085656434
000080 ea fa 06 3d 82 67 30 bd 18 96 82 bc c0 fa 71 bb
       0.032954134 -0.043067463 -0.01594071 -0.003692314
000090 58 45 27 3d 06 67 94 bd ff 9d 81 bd c0 00 30 3b
       0.040837616 -0.07246213 -0.063289635 0.0026855916
0000a0 f4 49 95 3d 58 fd 33 bd c0 0c 1a bb 37 0f 19 bd
       0.07289496 -0.04394278 -0.0023506135 -0.037368026
0000b0 50 63 19 bd 04 aa a9 bc 45 c9 b2 bd 00 e4 ed bb
       -0.037448227 -0.020710953 -0.08729795 -0.0072598457
0000c0 3c 7d 5b bd 00 42 cf b9 24 bf b5 bd b8 34 a6 3d
       -0.05358623 -0.0003953129 -0.08874348 0.08115524
0000d0 fc 18 4e 3d b2 8a 92 3d a0 87 ea 3b f6 95 9c 3d
       0.050316796 0.0715536 0.007157281 0.0764579
0000e0 c8 e5 5d 3c 0c 9e 36 bd 0c da 64 bd 58 ac 6f bc
       0.013543554 -0.04458432 -0.05587201 -0.014628492
0000f0 14 56 62 3d ec f1 81 bd 10 51 f0 3c 10 71 7a 3d
       0.05525787 -0.06344971 0.029335529 0.06114298
000100 1b f6 79 bd 00 de 68 bb ce b8 8b bd bd 97 33 bd
       -0.06102572 -0.0035532713 -0.06822358 -0.04384588
000110 e4 af 84 3d 15 a8 02 bd 08 b5 4b bc 8c 0f 3e 3d
       0.06478861 -0.031898577 -0.012433298 0.046401545
000120 22 dd 87 3d 10 81 85 3b a3 65 a6 bd eb 1d 5a bd
       0.066339746 0.0040742233 -0.081248544 -0.05325119
000130 2c aa 9d bd 88 74 4c 3d 90 ba 40 bd 55 41 39 bd
       -0.07698473 0.04991582 -0.04705292 -0.04522832
000140 52 e8 6b bd c4 37 79 3d 47 68 a5 bd d4 88 99 bc
       -0.057594605 0.060844198 -0.0807653 -0.018742003
000150 f8 98 d2 bc f6 e8 80 3d 78 44 a5 3d 84 ac c3 3c
       -0.025707707 0.06294434 0.080697 0.023885973
000160 94 2d b5 3c 94 76 dd 3c 90 25 b2 3d 6d 3e a8 bd
       0.02211646 0.027034082 0.08698571 -0.08215032
000170 d0 95 20 3c ff 65 35 bd a0 ee 96 bb e0 10 89 bd
       0.009801343 -0.044286724 -0.004606083 -0.06692672
000180 90 f4 71 3d 38 5b 32 3d c8 d4 00 3c 5d 6b 64 bd
       0.059071124 0.043544024 0.007863231 -0.055766452
000190 49 48 85 bd 84 2a b3 3c 38 a0 47 3d 08 67 c7 bc
       -0.06507928 0.021870859 0.04873678 -0.024341121
0001a0 07 c0 27 bd 75 23 03 bd 58 02 6e 3d d5 cb 82 bd
       -0.040954616 -0.032016236 0.058107704 -0.06386534
0001b0 20 18 27 3c 35 c7 88 bd 30 a2 a6 3b f4 59 21 3d
       0.010198623 -0.06678621 0.005085252 0.039392427
0001c0 00 5b 7b bb a0 38 b9 bb d0 8a c7 3c 9c 19 1c bd
       -0.00383538 -0.005652502 0.024358183 -0.03811036
0001d0 c0 f2 75 3d 6e 40 b1 bd aa 2d ae bd 03 bd 93 bd
       0.060045958 -0.08654867 -0.085048035 -0.072137855
0001e0 36 1e 02 3d 28 ea 94 bd b8 5b b5 bc ae 05 b3 3d
       0.031767093 -0.07271224 -0.022138461 0.08741318
0001f0 88 21 02 3c 6c 77 98 bc 20 8d 25 3d 84 a5 b2 3c
       0.007942565 -0.018611632 0.04041779 0.02180744
000200 14 a7 83 bd 98 ac dd bc b0 3a 35 3c b2 cc 95 bd
       -0.06428352 -0.027059838 0.0110613555 -0.07314433
000210 b1 41 33 bd ae 3c 33 bd da 25 34 bd a1 85 9f bd
       -0.04376382 -0.04375904 -0.04398141 -0.077891596
000220 c0 98 95 ba 44 a6 7f 3d 2b 43 3c bd 5c c3 a6 bc
       -0.0011413321 0.062414423 -0.045962494 -0.020356826
000230 00 b4 e4 3b 28 08 a1 bc 39 91 24 bd 28 ed 9f 3d
       0.0069794655 -0.01965721 -0.040177558 0.07808906
000240 74 46 61 3d c8 53 15 3d c4 1b 81 bd 0b 80 ab bd
       0.05499883 0.036456853 -0.06304124 -0.08374032
000250 1c fc 18 3d 31 7e 53 bd b8 11 ac bc ff 7b 63 bd
       0.037349805 -0.051634017 -0.021004543 -0.055538174
000260 c0 61 83 bb 5a 3b 9a bd 80 b5 a5 bc 25 89 3d bd
       -0.0040094554 -0.07530852 -0.020228148 -0.04627337
000270 44 97 8d 3d d0 69 58 3d 7c 74 09 3d b0 aa 7b 3d
       0.06913617 0.052835286 0.033558354 0.061442077
000280 f0 ea 07 bc 5c 96 1b bd 88 72 0d 3d 20 bd 32 3b
       -0.00829576 -0.03798519 0.034533054 0.0027273372
000290 68 78 5b 3c 00 17 ee bb 32 a4 9d bd 2e 4e b8 bd
       0.013395406 -0.0072659254 -0.076973334 -0.089992866
0002a0 60 34 c9 3c 56 ce 08 3d 40 f8 66 3d 8c 0c 97 bc
       0.024561107 0.033399902 0.056389093 -0.0184386
0002b0 6d 1d 4c bd 80 d8 65 bc 88 f6 45 3c 1f 48 b9 bd
       -0.04983275 -0.014028668 0.012082703 -0.09046959
0002c0 dc 68 42 3d 50 9a ee 3b 78 2f 2c bc 74 6b 86 3d
       0.047463283 0.007281579 -0.010509364 0.06563464
0002d0 8d 65 94 bd 20 f8 b0 bd 68 1e a3 bd 2c 52 06 3d
       -0.07245932 -0.08641076 -0.07964784 0.03279321
0002e0 20 bf 53 3d 54 67 6c 3d c0 f5 15 3b 44 c0 a6 bc
       0.051695943 0.05771573 0.0022882074 -0.020355351
0002f0 14 17 51 3d f6 d7 33 bd e3 9e 9c bd ba ea 87 3d
       0.0510474 -0.04390713 -0.07647493 0.066365674
000300 24 3d 69 bd 58 cc 7c bc 00 b0 ec bb d0 e3 74 3c
       -0.056943074 -0.015429579 -0.0072231293 0.014946893
000310 10 74 6b 3d c0 67 e5 3c b0 98 3c bc 34 fb b7 bd
       0.057483733 0.028003573 -0.011511013 -0.0898346
000320 64 a2 43 3d c8 db b3 bd dc 94 ae 3c 38 85 6b bd
       0.04776229 -0.08782154 0.021311216 -0.057500094
000330 dc e9 d6 3c a8 04 50 3d 8c 03 55 3d 08 23 6b 3c
       0.02623456 0.05078569 0.052005336 0.014351614
000340 48 02 45 bc 50 96 31 3d 74 ad 1f 3d ac a6 5f 3d
       -0.01202447 0.04335624 0.038983777 0.05460231
000350 ec 5f 68 3d 50 78 72 bd e8 1d 93 3d 59 ef b2 bd
       0.056732103 -0.05919677 0.071834385 -0.08737058
000360 ea 23 a1 3d 00 6a 5c bd 18 42 7a bc 4a 33 92 3d
       0.07868178 -0.053812027 -0.015274547 0.07138689
000370 2c 7d 64 3d 80 2f dd 3a 3c 85 11 3d a0 9b e8 bc
       0.055783436 0.0016875118 0.035527453 -0.02839452
000380 25 b2 87 bd 87 2a a2 bd 50 3c a9 3c e4 b8 9b 3d
       -0.06625775 -0.07918268 0.020658642 0.076036245
000390 6a bb ac bd a8 87 13 bc 9c 41 1d 3d d8 9d 6b bd
       -0.08434184 -0.009004511 0.038392648 -0.05752358
0003a0 aa 90 b3 bd 77 ee 99 bd 00 bd d6 bb c8 11 76 3d
       -0.08767827 -0.07516187 -0.0065532923 0.06007555
0003b0 48 a8 70 3c f0 00 3c bc 80 ef e4 bc ba ef 5d bd
       0.014688559 -0.011474833 -0.027946234 -0.0541837
0003c0 16 8b b7 bd 14 26 8f bc 9f f6 80 bd 70 dc 64 3d
       -0.089620754 -0.017474212 -0.06297039 0.055874288
0003d0 60 d5 1b 3c 42 c7 aa bd b0 65 31 3c 44 84 87 3d
       0.009511322 -0.08338787 0.010827467 0.066170245
0003e0 a4 c4 0f bd 28 e4 0a 3d 40 ef b8 bc 80 d0 f9 3a
       -0.03509964 0.033908993 -0.02257502 0.001905933
0003f0 52 b5 96 3d 30 4f b4 3c 50 91 14 bc db 67 4b bd
       0.07358803 0.022010416 -0.009067848 -0.04965959

bias f4 [84]
000000 9c 4a b5 bc bf 64 2c bd d1 03 39 bd 2c a7 1d 3d
       -0.022130303 -0.042088266 -0.045169655 0.038489506
000010 07 8f 03 bd 88 85 07 bc c6 e8 00 3d 64 c2 87 3d
       -0.032118823 -0.008271582 0.03147199 0.06628874
000020 c0 79 ff ba 07 18 72 bd 60 8d 00 3b 20 1f 3a 3d
       -0.001949124 -0.059104946 0.0019615516 0.04543984
000030 60 e9 88 3c 68 e4 92 bd 55 fc 8e bd b4 4f f4 3c
       0.016712844 -0.07172471 -0.06981722 0.029823162
000040 ae ed 83 bd 04 10 eb bc 64 a6 a1 3d c4 10 ae 3d
       -0.06441818 -0.02869416 0.078930646 0.084992915
000050 a8 7f 37 3d 38 aa 2e 3d 50 1d a0 bc 0b d0 90 bd
       0.044799477 0.042642802 -0.019545227 -0.07070931
000060 10 7d a8 3d 4c 3c 5b 3d e8 ba 0d 3d 38 e1 88 3c
       0.08226979 0.0535243 0.034602076 0.016708955
000070 ee 45 a6 3d 40 f5 07 3c f8 b6 c0 3c 5b 98 97 bd
       0.08118807 0.008298218 0.023524746 -0.074021064
000080 58 1f 54 3d a1 56 25 bd a0 12 3f 3c f0 c0 8d 3d
       0.051787704 -0.04036582 0.011662155 0.069215655
000090 c4 a6 3d 3d 84 f3 52 bd 42 88 26 bd 20 a2 84 3c
       0.04630162 -0.051501766 -0.04065729 0.016190588
0000a0 80 59 a6 3c ec 8c e2 bc 54 b9 4c 3d b4 e1 b0 3d
       0.020306349 -0.027655087 0.04998143 0.086367995
0000b0 60 a3 16 3b 84 d5 b9 3c 60 a3 85 bb c1 bc 6e bd
       0.0022985563 0.02268482 -0.0040783137 -0.05828548
0000c0 e0 72 84 bd 94 d0 8d bd 0e 1f ab bd 3c 23 19 3d
       -0.06467223 -0.06924549 -0.083555326 0.037387118
0000d0 e4 61 93 3c c6 29 99 bd 18 2e 9e 3d 1c 71 17 3d
       0.017991014 -0.07478671 0.077236354 0.036973104
0000e0 a4 56 85 3d e4 8a af 3d a0 81 3d 3b b0 e2 82 bd
       0.06510666 0.08571413 0.0028916374 -0.063908935
0000f0 2b bc 7b bd 38 ec 4c 3c 42 af 17 bd 13 4c b8 bd
       -0.061458748 0.012507491 -0.037032373 -0.08998885
000100 fd 48 b0 bd 1e fc 81 bd 5d 02 9a bd 90 54 01 bc
       -0.086076714 -0.06346916 -0.07519982 -0.007893696
000110 78 cb 74 3d 93 05 9b bd 20 81 69 bc 00 ac ad 3d
       0.059764355 -0.075694226 -0.014251977 0.08480072
000120 67 f1 40 bd c4 53 c3 3c 78 40 5c 3c 71 e5 26 bd
       -0.04710522 0.023843654 0.013443105 -0.040746156
000130 90 3a b4 3d 28 96 b6 3d ea d8 91 3d 80 4d 80 3a
       0.088002324 0.08915359 0.07121451 0.0009788722
000140 fa d8 96 3d 86 b6 24 bd 00 dd 33 3a e0 a1 09 3b
       0.07365604 -0.04021313 0.00068612397 0.0021001026

weight f4 [10, 84]
000000 5b 17 c9 3d 3b 89 cc 3d 31 7c ca 3d 59 3d 9a 3d
       0.09818908 0.09987112 0.09886969 0.075312324
000010 16 bb 62 3d 02 f4 92 bd 04 ad a4 bd 1e 45 b4 bd
       0.0553542 -0.07175447 -0.080408126 -0.088022456
000020 57 1e a4 3d 96 29 27 3d e0 74 e5 bb 71 0b 92 3d
       0.08013599 0.040811144 -0.007002458 0.071310885
000030 d5 d7 d9 bd 98 56 78 bd b0 05 13 bc 6c e5 7b bd
       -0.1063687 -0.060629457 -0.008973524 -0.06149809
000040 bd 15 c9 3d ac 59 c6 3c a7 7b bd 3d 1b 54 56 bd
       0.098185994 0.02421268 0.092521004 -0.052326303
000050 e4 60 b6 3c ac 78 70 bd 4d 97 d3 3d 9a 16 93 bd
       0.022262998 -0.05870883 0.10331593 -0.07182045
000060 d1 d9 a4 3d 01 e4 6d bd f4 c0 ba bc d8 b0 ad bd
       0.08049358 -0.05807877 -0.022797085 -0.08480996
000070 e3 aa 89 3d f6 1a 2f 3d 8e cb 8c bd 3c 6c 8a bc
       0.06722047 0.04275032 -0.068747625 -0.016897313
000080 8c 21 3c bd f8 0e 0e bd 9c 55 a0 bc b4 cc 84 3c
       -0.04593043 -0.034682244 -0.019572072 0.016210891
000090 56 9d 48 3d 90 42 a9 bb b6 82 5d 3d 40 03 94 3a
       0.048978172 -0.0051654056 0.054079734 0.0011292472
0000a0 7e fc 2a bd e0 dd d1 bb 18 a9 e2 bc dc b7 90 bd
       -0.0417447 -0.0064046234 -0.02766852 -0.070663184
0000b0 e9 95 87 3d 1d 32 b6 3d ee c9 45 bd 6e 9b 47 3d
       0.0662039 0.08896277 -0.04828828 0.048732214
0000c0 de ae 4d 3d 3b 2f 5e bd e2 02 2d 3d da 52 2e bd
       0.050215594 -0.05424426 0.042239077 -0.042559482
0000d0 86 5e 55 3d 4c 90 32 bd db 38 c0 3d c8 21 b1 bc
       0.052092098 -0.043594643 0.09385844 -0.021622553
0000e0 b0 fc 69 bc c0 53 a0 bb b5 35 98 3d 80 52 40 3c
       -0.014281437 -0.0048927963 0.07432119 0.0117384195
0000f0 5d 8e bc 3d 52 b7 24 bd f1 3e 8e 3d 90 f2 98 bd
       0.09206841 -0.04021389 0.06945599 -0.0746814
000100 f4 1e d4 3c 20 22 b4 bb 0a ee 80 bd 44 33 a4 bc
       0.025893666 -0.005497232 -0.06295402 -0.020043977
000110 d8 bd a9 bd 10 30 c7 bc 00 1b a7 bc 20 0d b3 bb
       -0.08288163 -0.02431491 -0.020398617 -0.005464211
000120 d8 56 f6 bc 24 ad a0 3c 00 12 de bb e7 0e bd bd
       -0.030070707 0.01961381 -0.006777048 -0.09231358
000130 43 6f c9 bd 44 cb 2f bd 8e 39 22 3d a9 06 a3 3d
       -0.098356746 -0.04291846 0.03960567 0.07960255
000140 8d ba cc bd b8 b4 90 bc 58 13 c9 bc e2 3f 33 bd
       -0.09996519 -0.017664298 -0.024545357 -0.043762095
000150 3e c0 27 bd 15 89 6b bd 7c 7b 9e bd 32 a0 2c bd
       -0.04095482 -0.05750378 -0.077383965 -0.04214496
000160 6c c9 5c bd fb 28 9f 3d c7 77 bc 3d fd 2a dd 3d
       -0.05390303 0.07771488 0.09202533 0.10799215
000170 98 7e be bc 3c 48 fd 3c 49 37 c5 3d 14 d4 27 bd
       -0.023253724 0.030918233 0.096296854 -0.040973738
000180 1e 61 23 bd db 99 83 bd 9a 15 27 3d 64 bf cd bd
       -0.03988754 -0.0642583 0.040792085 -0.100462705
000190 cc bd f4 3c 68 91 90 bc d8 b2 6e bc db 74 d2 3d
       0.029875658 -0.01764746 -0.014569007 0.10276195
0001a0 2e bb 05 bd 56 4b d9 bd 3c 5a 8f bd f9 c0 dc bd
       -0.03264921 -0.10610072 -0.06999633 -0.10778994
0001b0 98 ae 90 bd 38 a1 db bd be b4 2b 3d c2 0b 2b 3d
       -0.07064551 -0.107241094 0.041920416 0.04175926
0001c0 77 bd ae 3d a0 d5 dc bb 7e ca 9f bd 1e 33 67 bd
       0.08532231 -0.0067393333 -0.07802294 -0.056445234
0001d0 5c 83 98 bd a8 2d 0d bd 10 20 b8 bd 44 8e ea 3c
       -0.0744693 -0.03446737 -0.089904904 0.02863229
0001e0 7e 23 6c 3d 63 16 be bd 08 6e eb bc 28 0d 3c bd
       0.057651035 -0.09281614 -0.02873899 -0.045910984
0001f0 00 a7 b0 3a 94 52 ab 3c 1b 99 5e bd fb 79 63 bd
       0.0013477504 0.0209134 -0.05434523 -0.05553625
000200 92 93 d9 bd 96 1a 27 3d 92 c8 98 bd f2 fa 50 3d
       -0.1062385 0.04079684 -0.07460131 0.05102057
000210 0c 19 20 bd 70 5a 1d bc 84 ab 84 bc 85 eb 80 3d
       -0.039086387 -0.0096040815 -0.016195066 0.06294922
000220 21 65 96 3d 20 1b 30 bb 04 f3 8b bc 93 59 82 bd
       0.073435076 -0.0026871637 -0.017083652 -0.06364741
000230 00 fa c5 39 8d 35 b1 bd 7c a2 09 bd 00 50 0d bd
       0.00037761033 -0.08652792 -0.033602223 -0.034500122
000240 6d a0 9c bd c4 1a fa bc 9b 30 9b 3d 90 96 6d bd
       -0.07647786 -0.030530341 0.0757763 -0.058004916
000250 2a db b7 bd 83 fd 9f 3d d0 6a 10 bc 7e a5 ca bd
       -0.08977349 0.078120254 -0.008814529 -0.098948464
000260 42 0e 81 bd e6 f1 58 bd 00 8c 86 bc 25 2c 9e bd
       -0.063015476 -0.052965067 -0.01642418 -0.07723264
000270 31 f5 a8 3d 1d e7 93 3d 8f 04 b9 3d f8 8b 15 bd
       0.082498915 0.07221816 0.090340726 -0.036510438
000280 a0 b6 4d 3c f8 d5 76 bd 90 c7 8d bd 32 ab b4 bd
       0.012555748 -0.06026265 -0.06922829 -0.088217154
000290 b3 8d da bd 1e cd 10 3d fc 88 e5 3c c0 2c 9f 3a
       -0.10671558 0.035351865 0.02801942 0.0012144074
0002a0 a0 5b 91 bb 34 fb 91 3c 77 0d 8d 3d 46 59 4e bd
       -0.0044359714 0.017819978 0.06887334 -0.050378107
0002b0 f8 a1 1a bd 68 61 12 3c 1b e1 80 3d 7d 40 da bd
       -0.03775212 0.008934356 0.062929355 -0.106568314
0002c0 e3 48 48 bd 44 b9 67 bd 9c 2d d5 bd 18 27 14 bc
       -0.048897635 -0.056573167 -0.1040909 -0.009042524
0002d0 a0 39 99 3b be 96 58 3d 32 81 46 3d 10 b8 64 bc
       0.004676059 0.052878134 0.048463054 -0.0139599
0002e0 12 2c 5c 3d 41 5d 96 bd 95 cf 43 bd 3e c3 3a 3d
       0.053752966 -0.073420055 -0.047805388 0.045596354
0002f0 88 c1 81 bd 9f e8 c5 3d 72 7e 78 3d 7a c7 48 3d
       -0.06335741 0.096635096 0.060667463 0.04901836
000300 24 ca c5 bc 80 2f 28 bb 80 20 b7 bb a1 cf 81 3d
       -0.02414424 -0.0025663078 -0.005588591 0.0633843
000310 de 05 11 3d d2 ea 04 3d 9f 6a cd 3d d7 d9 bc bd
       0.035405986 0.032450505 0.10030102 -0.09221237
000320 f1 44 5f bd 6b 78 93 bd 74 ec a1 bc 35 b1 9c 3d
       -0.054509107 -0.07200702 -0.01976607 0.07650987
000330 40 72 12 3b 4e ed 22 3d 44 e1 9a bc f3 65 99 3d
       0.002234593 0.039777093 -0.018906243 0.074901484
000340 d8 55 ca bd 20 e6 0b 3c a2 cb 31 3d c0 2a f1 bb
       -0.09879655 0.008538753 0.04340709 -0.0073598325
000350 6e 80 27 3d a0 2d 97 bb a7 7c 6d bd 2e b7 cf bd
       0.040893964 -0.004613593 -0.057980206 -0.10142361
000360 fb 9e d9 3d 81 12 d4 3d a4 2d 31 bd 1b 9d a9 3d
       0.10626026 0.10355092 -0.043256417 0.082819186
000370 a6 43 53 3d f6 05 1e 3d c8 f6 53 3c 75 2c 84 3d
       0.051578186 0.038579904 0.012937255 0.06453792
000380 1a 63 11 3d 28 06 64 3c d0 f6 27 bc 66 fb dd bd
       0.0354949 0.013917483 -0.010251716 -0.10838966
000390 50 f8 a9 3b 0f 94 ac 3d ec 3f e6 3c c9 a8 65 bd
       0.005187072 0.084266774 0.028106652 -0.05606917
0003a0 00 37 50 3a a8 63 d7 bc 1c e4 ce bd d8 15 23 3c
       0.0007942766 -0.026292637 -0.10102102 0.009953938
0003b0 58 d2 b2 bd 48 96 c6 bc 46 d0 83 bd 6d 53 c6 3d
       -0.08731526 -0.024241582 -0.064362094 0.09683881
0003c0 f4 45 90 3c ca 1e 20 bd ce df 92 bd 00 d9 ee ba
       0.017611481 -0.039091863 -0.071715936 -0.001822263
0003d0 40 cb 34 bc 9a 14 de bd 1c 2c d7 3c 8c 35 a9 3c
       -0.011034787 -0.10843773 0.02626615 0.020655416
0003e0 f8 4e c0 bc 1a c3 24 bd ac ec b5 3c d2 49 05 bd
       -0.023475155 -0.040225126 0.02220758 -0.032541104
0003f0 d2 df 75 bd 72 2a 35 bd cc 2f 96 bd 6d 8e 82 3d
       -0.060027905 -0.044229932 -0.07333335 0.06374822

bias f4 [10]
000000 0e c8 60 3d f3 22 4f bd a0 64 06 bd 00 a7 c5 bc
       0.054878287 -0.05057044 -0.032810807 -0.024127483
000010 3c 39 ba 3c 35 5a 82 3d c2 36 2f 3d 82 4a 28 3d
       0.02273237 0.06364862 0.04277683 0.04108668
000020 37 78 be bd ee ce 2a 3d
       -0.09300273 0.04170125
